…
    save_checkpoint_freq: 10000.0
  ]
  is_train: True
  dist: False

21-07-27 20:54:42.595 - INFO: Random seed: 0
21-07-27 20:54:43.046 - INFO: Dataset [DatasetFromFolder - EDVR] is created.
21-07-27 20:54:43.046 - INFO: Number of train images: 24,000, iters: 3,000
21-07-27 20:54:43.046 - INFO: Total epochs needed: 201 for iters 600,001
21-07-27 20:54:43.071 - INFO: Dataset [DatasetFromFolder - EDVR] is created.
21-07-27 20:54:43.071 - INFO: Number of val images in [EDVR]: 3000
21-07-27 20:55:15.639 - INFO: Network G structure: DataParallel - EDVR, with parameters: 896,643
21-07-27 20:55:15.640 - INFO: EDVR(
  (conv_first): Conv2d(3, 32, kernel_size=(3, 3), stride=(1, 1), padding=(1, 1))
  (feature_extraction): Sequential(
    (0): ResidualBlock_noBN(
      (conv1): Conv2d(32, 32, kernel_size=(3, 3), stride=(1, 1), padding=(1, 1))
      (conv2): Conv2d(32, 32, kernel_size=(3, 3), stride=(1, 1), padding=(1, 1))
    )
    (1): ResidualBlock_noBN(
      (conv1): Conv2d(32, 32, kernel_size=(3, 3), stride=(1, 1), padding=(1, 1))
      (conv2): Conv2d(32, 32, kernel_size=(3, 3), stride=(1, 1), padding=(1, 1))
    )
    (2): ResidualBlock_noBN(
      (conv1): Conv2d(32, 32, kernel_size=(3, 3), stride=(1, 1), padding=(1, 1))
      (conv2): Conv2d(32, 32, kernel_size=(3, 3), stride=(1, 1), padding=(1, 1))
    )
    (3): ResidualBlock_noBN(
      (conv1): Conv2d(32, 32, kernel_size=(3, 3), stride=(1, 1), padding=(1, 1))
      (conv2): Conv2d(32, 32, kernel_size=(3, 3), stride=(1, 1), padding=(1, 1))
    )
    (4): ResidualBlock_noBN(
      (conv1): Conv2d(32, 32, kernel_size=(3, 3), stride=(1, 1), padding=(1, 1))
      (conv2): Conv2d(32, 32, kernel_size=(3, 3), stride=(1, 1), padding=(1, 1))
    )
  )
  (fea_L2_conv1): Conv2d(32, 32, kernel_size=(3, 3), stride=(2, 2), padding=(1, 1))
  (fea_L2_conv2): Conv2d(32, 32, kernel_size=(3, 3), stride=(1, 1), padding=(1, 1))
  (fea_L3_conv1): Conv2d(32, 32, kernel_size=(3, 3), stride=(2, 2), padding=(1, 1))
  (fea_L3_conv2): Conv2d(32, 32, kernel_size=(3, 3), stride=(1, 1), padding=(1, 1))
  (pcd_align): PCD_Align(
    (L3_offset_conv1): Conv2d(64, 32, kernel_size=(3, 3), stride=(1, 1), padding=(1, 1))
    (L3_offset_conv2): Conv2d(32, 32, kernel_size=(3, 3), stride=(1, 1), padding=(1, 1))
    (L3_dcnpack): ModulatedDeformConvPack(
      (conv_offset_mask): Conv2d(32, 216, kernel_size=(3, 3), stride=(1, 1), padding=(1, 1))
    )
    (L2_offset_conv1): Conv2d(64, 32, kernel_size=(3, 3), stride=(1, 1), padding=(1, 1))
    (L2_offset_conv2): Conv2d(64, 32, kernel_size=(3, 3), stride=(1, 1), padding=(1, 1))
    (L2_offset_conv3): Conv2d(32, 32, kernel_size=(3, 3), stride=(1, 1), padding=(1, 1))
    (L2_dcnpack): ModulatedDeformConvPack(
      (conv_offset_mask): Conv2d(32, 216, kernel_size=(3, 3), stride=(1, 1), padding=(1, 1))
    )
    (L2_fea_conv): Conv2d(64, 32, kernel_size=(3, 3), stride=(1, 1), padding=(1, 1))
    (L1_offset_conv1): Conv2d(64, 32, kernel_size=(3, 3), stride=(1, 1), padding=(1, 1))
    (L1_offset_conv2): Conv2d(64, 32, kernel_size=(3, 3), stride=(1, 1), padding=(1, 1))
    (L1_offset_conv3): Conv2d(32, 32, kernel_size=(3, 3), stride=(1, 1), padding=(1, 1))
    (L1_dcnpack): ModulatedDeformConvPack(
      (conv_offset_mask): Conv2d(32, 216, kernel_size=(3, 3), stride=(1, 1), padding=(1, 1))
    )
    (L1_fea_conv): Conv2d(64, 32, kernel_size=(3, 3), stride=(1, 1), padding=(1, 1))
    (cas_offset_conv1): Conv2d(64, 32, kernel_size=(3, 3), stride=(1, 1), padding=(1, 1))
    (cas_offset_conv2): Conv2d(32, 32, kernel_size=(3, 3), stride=(1, 1), padding=(1, 1))
    (cas_dcnpack): ModulatedDeformConvPack(
      (conv_offset_mask): Conv2d(32, 216, kernel_size=(3, 3), stride=(1, 1), padding=(1, 1))
    )
    (lrelu): LeakyReLU(negative_slope=0.1, inplace)
  )
  (tsa_fusion): TSA_Fusion(
    (tAtt_1): Conv2d(32, 32, kernel_size=(3, 3), stride=(1, 1), padding=(1, 1))
    (tAtt_2): Conv2d(32, 32, kernel_size=(3, 3), stride=(1, 1), padding=(1, 1))
    (fea_fusion): Conv2d(160, 32, kernel_size=(1, 1), stride=(1, 1))
    (sAtt_1): Conv2d(160, 32, kernel_size=(1, 1), stride=(1, 1))
    (maxpool): MaxPool2d(kernel_size=3, stride=2, padding=1, dilation=1, ceil_mode=False)
    (avgpool): AvgPool2d(kernel_size=3, stride=2, padding=1)
    (sAtt_2): Conv2d(64, 32, kernel_size=(1, 1), stride=(1, 1))
    (sAtt_3): Conv2d(32, 32, kernel_size=(3, 3), stride=(1, 1), padding=(1, 1))
    (sAtt_4): Conv2d(32, 32, kernel_size=(1, 1), stride=(1, 1))
    (sAtt_5): Conv2d(32, 32, kernel_size=(3, 3), stride=(1, 1), padding=(1, 1))
    (sAtt_L1): Conv2d(32, 32, kernel_size=(1, 1), stride=(1, 1))
    (sAtt_L2): Conv2d(64, 32, kernel_size=(3, 3), stride=(1, 1), padding=(1, 1))
    (sAtt_L3): Conv2d(32, 32, kernel_size=(3, 3), stride=(1, 1), padding=(1, 1))
    (sAtt_add_1): Conv2d(32, 32, kernel_size=(1, 1), stride=(1, 1))
    (sAtt_add_2): Conv2d(32, 32, kernel_size=(1, 1), stride=(1, 1))
    (lrelu): LeakyReLU(negative_slope=0.1, inplace)
  )
  (recon_trunk): Sequential(
    (0): ResidualBlock_noBN(
      (conv1): Conv2d(32, 32, kernel_size=(3, 3), stride=(1, 1), padding=(1, 1))
      (conv2): Conv2d(32, 32, kernel_size=(3, 3), stride=(1, 1), padding=(1, 1))
    )
    (1): ResidualBlock_noBN(
      (conv1): Conv2d(32, 32, kernel_size=(3, 3), stride=(1, 1), padding=(1, 1))
      (conv2): Conv2d(32, 32, kernel_size=(3, 3), stride=(1, 1), padding=(1, 1))
    )
    (2): ResidualBlock_noBN(
      (conv1): Conv2d(32, 32, kernel_size=(3, 3), stride=(1, 1), padding=(1, 1))
      (conv2): Conv2d(32, 32, kernel_size=(3, 3), stride=(1, 1), padding=(1, 1))
    )
    (3): ResidualBlock_noBN(
      (conv1): Conv2d(32, 32, kernel_size=(3, 3), stride=(1, 1), padding=(1, 1))
      (conv2): Conv2d(32, 32, kernel_size=(3, 3), stride=(1, 1), padding=(1, 1))
    )
    (4): ResidualBlock_noBN(
      (conv1): Conv2d(32, 32, kernel_size=(3, 3), stride=(1, 1), padding=(1, 1))
      (conv2): Conv2d(32, 32, kernel_size=(3, 3), stride=(1, 1), padding=(1, 1))
    )
    (5): ResidualBlock_noBN(
      (conv1): Conv2d(32, 32, kernel_size=(3, 3), stride=(1, 1), padding=(1, 1))
      (conv2): Conv2d(32, 32, kernel_size=(3, 3), stride=(1, 1), padding=(1, 1))
    )
    (6): ResidualBlock_noBN(
      (conv1): Conv2d(32, 32, kernel_size=(3, 3), stride=(1, 1), padding=(1, 1))
      (conv2): Conv2d(32, 32, kernel_size=(3, 3), stride=(1, 1), padding=(1, 1))
    )
    (7): ResidualBlock_noBN(
      (conv1): Conv2d(32, 32, kernel_size=(3, 3), stride=(1, 1), padding=(1, 1))
      (conv2): Conv2d(32, 32, kernel_size=(3, 3), stride=(1, 1), padding=(1, 1))
    )
    (8): ResidualBlock_noBN(
      (conv1): Conv2d(32, 32, kernel_size=(3, 3), stride=(1, 1), padding=(1, 1))
      (conv2): Conv2d(32, 32, kernel_size=(3, 3), stride=(1, 1), padding=(1, 1))
    )
    (9): ResidualBlock_noBN(
      (conv1): Conv2d(32, 32, kernel_size=(3, 3), stride=(1, 1), padding=(1, 1))
      (conv2): Conv2d(32, 32, kernel_size=(3, 3), stride=(1, 1), padding=(1, 1))
    )
  )
  (upconv1): Conv2d(32, 32, kernel_size=(3, 3), stride=(1, 1), padding=(1, 1))
  (upconv2): Conv2d(32, 32, kernel_size=(3, 3), stride=(1, 1), padding=(1, 1))
  (HRconv): Conv2d(32, 32, kernel_size=(3, 3), stride=(1, 1), padding=(1, 1))
  (conv_last): Conv2d(32, 3, kernel_size=(3, 3), stride=(1, 1), padding=(1, 1))
  (lrelu): LeakyReLU(negative_slope=0.1, inplace)
)
21-07-27 20:55:15.640 - INFO: Loading model for G [pretrained/EDVR_L_deblur_REDS_official-ca46bd8c.pth] ...
21-07-27 20:55:16.375 - INFO: Model [VideoBaseModel] is created.
21-07-27 20:55:16.375 - INFO: Start training from epoch: 0, iter: 0
21-07-27 20:56:28.353 - INFO: [epoch:  0, iter:      10, lr:(4.000e-04,)] mean_loss: 1.0701e+04 mesn_psnr: 29.668245315551758 
…
